ffnn_multilabel_model.pth (torch, 64104 bytes, 8 tensors)

model.0.weight f4 [64, 100]
0	0x3d7675ba	0.060170867
1	0xbd4165fc	-0.0472164
2	0xbc157895	-0.009122987
3	0xbebbf51c	-0.3671044
4	0x3e5a7382	0.21333125
5	0xbe3e1587	-0.185629
6	0x3e7aef3e	0.24505326
7	0x3ca08151	0.019592913
8	0xbd14aea5	-0.036299367
9	0x3e195686	0.14974412
10	0x3cc86d0d	0.024466062
11	0xbdad0a81	-0.08449269
12	0x3c080f3b	0.0083044125
13	0x3df5afe0	0.11996436
14	0x3e0ba0f3	0.13635616
15	0x3e2f143d	0.17097564
16	0xbc80ae8f	-0.015708236
17	0x3da5a9f7	0.08089059
18	0xbc86ce7a	-0.016455878
19	0x3dea4884	0.114396125
20	0x3dded8d7	0.10881203
21	0xbde0066c	-0.10938725
22	0xbd3adadc	-0.045618877
23	0xbdad9363	-0.084753774
24	0x3e69862e	0.22805092
25	0xbd08fd96	-0.033444963
26	0x3ed73add	0.42037097
27	0xbe30c586	-0.17262849
28	0x3d7dd84e	0.061973862
29	0x3a822bfc	0.0009931321
30	0xbe23477f	-0.15945242
31	0xbe222912	-0.1583598
32	0xbdaa7048	-0.08322197
33	0xbe40e717	-0.18838154
34	0xbdba761b	-0.09104558
35	0x3e097e1c	0.13427013
36	0xbd88ce9d	-0.06680033
37	0x3e3fe5d3	0.18740015
38	0x3de62e24	0.112392694
39	0x3dca2ac5	0.09871439
40	0xbcb57519	-0.022150563
41	0x3da18321	0.07886339
42	0xbd3c452e	-0.045964412
43	0x3de2dcbc	0.11077258
44	0xbd842f03	-0.06454279
45	0xbe89c3cd	-0.26907197
46	0x3e37caaa	0.17948404
47	0xbe5dd309	-0.21662535
48	0xbddb9917	-0.10722559
49	0xbc687a1c	-0.014189269
50	0xbd0907b8	-0.033454627
51	0xbd29c09a	-0.041443445
52	0xbe276d89	-0.16350378
53	0x3eafeed9	0.34361914
54	0xbe883979	-0.26606348
55	0x3d787f10	0.06066805
56	0xbc448814	-0.011995334
57	0xbdbd2b69	-0.092367955
58	0x3cddb263	0.0270626
59	0xbd72aafe	-0.059245102
60	0x3b6bcfe8	0.0035982076
61	0xbe378330	-0.17921138
62	0xbd5d5aa7	-0.05404153
63	0x3da78ef3	0.08181562
64	0x3de52fa3	0.111907266
65	0x3e0020b0	0.1251247
66	0xbbb012b6	-0.0053733243
67	0x3e0f4da7	0.13994466
68	0xbe1febd4	-0.15617305
69	0x3d0ef8a6	0.0349051
70	0x3d74b82f	0.059745964
71	0xbcab4630	-0.020907491
72	0x3e2e9b65	0.17051466
73	0x3d1700bd	0.03686594
74	0x3c184529	0.009293833
75	0xbe388295	-0.18018563
76	0xbe030844	-0.12796122
77	0x3e26decf	0.16295932
78	0x3c409467	0.011754132
79	0x3e55af6f	0.20867704
80	0x3cfee40b	0.031114599
81	0x3dafe6f6	0.08588974
82	0x3e0f090b	0.13968293
83	0x3d955ef0	0.072934985
84	0xbc66d337	-0.0140884435
85	0x3e582904	0.21109396
86	0xbd8382c5	-0.06421427
87	0xbce92e59	-0.028464483
88	0x3d129d7d	0.035794724
89	0x3daf9917	0.085741214
90	0x3cd3690c	0.025806926
91	0xbdce5da9	-0.10076458
92	0x3e2515ed	0.16121645
93	0x3deda0c4	0.11602929
94	0x3e0df49f	0.13862847
95	0xbdfe7834	-0.12425271
96	0xbe38031d	-0.17969938
97	0xbd6a789b	-0.057243925
98	0x3d846a5a	0.064655975
99	0x3d358d77	0.044324365
100	0x3c890060	0.016723812
101	0xbd08d944	-0.033410326
102	0x3e0e8135	0.13916476
103	0x3dba5e31	0.09099997
104	0x3e141b04	0.1446343
105	0x3dad2bde	0.084556326
106	0xbe16d276	-0.14728722
107	0x3b491da8	0.0030687843
108	0xbd976275	-0.07391826
109	0x3cbdb055	0.02315537
110	0xbd72c592	-0.05927045
111	0xbcf82f14	-0.030295886
112	0x3eb24ab3	0.34822616
113	0x3db2d7b7	0.087325506
114	0xbd3808d5	-0.044930298
115	0x3c9de4f7	0.019274218
116	0xbddd09ee	-0.107929096
117	0xbd087b28	-0.033320576
118	0x3e085ffa	0.13317862
119	0xbc1db162	-0.009624811
120	0x3d2b07ef	0.041755613
121	0xbe761710	-0.24032235
122	0xbd2e506a	-0.042557158
123	0x3d93769b	0.072003566
124	0xbc44f4de	-0.0120212715
125	0xbddd6b87	-0.10811525
126	0x3d146ba6	0.036235474
127	0xbe117e28	-0.14208281
128	0x3d0a8f01	0.033827785
129	0x3d3f7fe9	0.046752844
130	0x3e073baa	0.13206354
131	0xbc954f78	-0.01822637
132	0x3d94b5f0	0.07261264
133	0x3e54a04d	0.20764275
134	0xbd5fee86	-0.054670833
135	0xbe19c8d6	-0.15018019
136	0xbe1135de	-0.14180705
137	0x3e590d86	0.21196565
138	0x3e17859d	0.14797063
139	0x3d8d32e6	0.06894474
140	0x3bdea364	0.00679438
141	0x3d160957	0.03663
142	0x3da681e6	0.08130245
143	0xbccdf939	-0.025143253
144	0xbd3a11bb	-0.045427065
145	0x3ce111d4	0.027474321
146	0x3dabaa20	0.08382058
147	0xbe3b9879	-0.18319882
148	0x3dc539f7	0.096301965
149	0x3da6ca2e	0.081440315
150	0xbcf9d945	-0.03049911
151	0x3e211117	0.15729176
152	0xbe0bc32b	-0.1364867
153	0x3da3fb14	0.08006874
154	0x3e0090a2	0.12555173
155	0x3e115d06	0.14195642
156	0x3bed59ec	0.0072433855
157	0x3cd534fc	0.026026241
158	0xbdb3f5cc	-0.087871164
159	0x3d016f2c	0.031600162
160	0x3e3706ae	0.17873642
161	0x3da76792	0.08174051
162	0xbd04fa48	-0.03246525
163	0x3d69b129	0.05705372
164	0x3e5d6a7b	0.2162265
165	0xbd74e805	-0.059791584
166	0x3d00bbd6	0.031429134
167	0xbdb1357b	-0.08652779
168	0xbdafcb7a	-0.08583732
169	0xbd31af60	-0.04338014
170	0x3d0e49f2	0.03473849
171	0xbd7db8ca	-0.061943807
172	0xbc41579e	-0.011800675
173	0xbcfd1347	-0.030892981
174	0x3d7e0e2d	0.062025238
175	0x3e3e772e	0.18600151
176	0x3e81f633	0.25383148
177	0xbde32305	-0.11090664
178	0xbd600e69	-0.054701243
179	0x3e96f77f	0.294857
180	0xbdac9f56	-0.084288284
181	0x3de2e124	0.110780984
182	0x3e3f0c33	0.18656997
183	0xbd744872	-0.0596394
184	0xbd3b2619	-0.04569063
185	0xbdde262c	-0.108471245
186	0x3d6f5972	0.05843491
187	0x3df6d7aa	0.120528534
188	0xbcd196ab	-0.02558454
189	0x3d38d4b5	0.04512473
190	0xbb62bf52	-0.00345989
191	0xbd208bb1	-0.03919572
192	0xbd5a8ecf	-0.05335885
193	0xbdc48739	-0.09596104
194	0x3d801d2e	0.062555656
195	0xbca6be43	-0.020354396
196	0x3db978b5	0.09056226
197	0xbd37ef17	-0.04490575
198	0xbd014645	-0.031561155
199	0xbdb07a8e	-0.086171255
200	0x3e35b712	0.17745617
201	0xbdcd239f	-0.1001656
202	0x3e346661	0.1761718
203	0x3c4aa7b0	0.012369081
204	0x3de27f60	0.11059451
205	0x3c403ffb	0.011734004
206	0xbd40d372	-0.04707665
207	0xbdf53098	-0.11972159
208	0xbc173a20	-0.009230167
209	0xbe45a746	-0.19302091
210	0x3e5a7dc8	0.21337044
211	0x3d172594	0.03690107
212	0x3e7b0c54	0.24516422
213	0xbe1314a6	-0.14363346
214	0x3db57ca5	0.08861665
215	0x3e607a71	0.21921708
216	0x3d8d28ef	0.06892573
217	0xbd0244ec	-0.03180401
218	0xbc0531d9	-0.00812956
219	0x3de5ce35	0.112209715
220	0x3e386253	0.18006258
221	0xbe0896ae	-0.1333873
222	0x3d93eb75	0.07222644
223	0xbd2d69c5	-0.042337198
224	0x3c9ca3e3	0.019121116
225	0xbe10c4ab	-0.14137523
226	0xbcd16f01	-0.025565626
227	0xbdc7595c	-0.09733841
228	0x3d4855c4	0.048909917
229	0xbcb2c56d	-0.021822656
230	0x3d322cf3	0.0434999
231	0x3de92f43	0.113859676
232	0x3d99376a	0.074812725
233	0xbe17c513	-0.14821272
234	0xbcb75b0f	-0.022382287
235	0xbc4efc56	-0.012633404
236	0xbe38adbc	-0.18035024
237	0xbe5b9f4e	-0.21447489
238	0xbcae6308	-0.021287456
239	0x3e06d8fd	0.13168712
240	0x3e7bc941	0.24588491
241	0x3da53b2a	0.08067925
242	0xbdef301c	-0.11679098
243	0x3dbfff17	0.093748264
244	0xbe269b55	-0.16270192
245	0xbccc1f03	-0.024917131
246	0x3d95b719	0.07310314
247	0xbd6b01aa	-0.057374634
248	0x3d42814c	0.04748659
249	0xbb97e005	-0.0046348595
250	0xbe3d4daa	-0.18486658
251	0xbba2820a	-0.0049593495
252	0xbd6df9b6	-0.05809947
253	0x3e06e2a0	0.13172388
254	0x3dcec5a2	0.10096289
255	0xbd87a00f	-0.06622326

model.0.bias f4 [64]
0	0x3cab64ae	0.020922031
1	0x3e00601a	0.1253666
2	0x3c929657	0.017893953
3	0xbcd8b0d4	-0.026451506
4	0x3a0af5bc	0.00053008995
5	0x3c744bd8	0.014910661
6	0xbde0529d	-0.10953257
7	0xbd1e74b8	-0.03868553
8	0x3df8d521	0.12150026
9	0x3d15ff2d	0.036620308
10	0x3db8f893	0.09031787
11	0x3d6f8457	0.05847582
12	0xbe15a69d	-0.14614339
13	0x3dc936c6	0.098249
14	0x3d7f1e6f	0.062284883
15	0xbd7c088b	-0.061531585
16	0xbca7f86f	-0.020504205
17	0x3dd25d0b	0.10271653
18	0x3d5857be	0.052818052
19	0x3dc04ff5	0.093902506
20	0xbccdc0fd	-0.025116438
21	0xbcda6234	-0.026658155
22	0x3d745b6a	0.05965749
23	0x3c4e805f	0.012603848
24	0x3dee5d27	0.11638861
25	0x3df5c552	0.120005265
26	0x3cf810af	0.030281393
27	0x3d1d95f7	0.038473096
28	0x3dbd727c	0.09250352
29	0x3e057abb	0.13035099
30	0x3dca6e12	0.098842755
31	0x3e0850cb	0.1331207
32	0x3d3a889a	0.04554043
33	0x3cdc0f43	0.026862746
34	0xbcd8e62d	-0.026476944
35	0x3d8dae28	0.06917983
36	0x3ceaf01d	0.028678948
37	0xbd03a545	-0.032140035
38	0x3d9d0ad6	0.076680824
39	0x3c981fb8	0.018569812
40	0x3c9400ad	0.018066728
41	0x3d7b608b	0.061371367
42	0x3da98974	0.0827817
43	0xbb836115	-0.004009376
44	0xbd4df3c7	-0.050281312
45	0x3c9cab4f	0.019124655
46	0x3daa62ee	0.083196506
47	0xbb2a8b34	-0.0026022913
48	0x3db565c6	0.08857302
49	0x3d1a39b6	0.037652694
50	0x3c962f57	0.01833312
51	0x3dc3a0c1	0.09552146
52	0x3e126c9d	0.14299245
53	0x3e2817b3	0.1641529
54	0xbdc218e9	-0.094774075
55	0x3c6377ad	0.013883513
56	0x3db42d7c	0.08797738
57	0x3db5864e	0.08863507
58	0x3d1e15a4	0.038594857
59	0x3ce96272	0.028489325
60	0xbd04cac0	-0.03241992
61	0x3dd77bf0	0.10521686
62	0x3bc8ee11	0.0061318954
63	0x3dd61290	0.10452759

model.2.weight f4 [64, 64]
0	0x3e917beb	0.28414854
1	0x3dd78459	0.1052329
2	0xbe6ca666	-0.23110351
3	0xbe40030e	-0.18751165
4	0x3df5f45b	0.12009498
5	0x3d2a1fde	0.041534297
6	0x3da81f18	0.08209056
7	0xbe41907f	-0.18902777
8	0xbd5f777c	-0.05455731
9	0xbd2ed96b	-0.042687815
10	0x3e2d9ab7	0.1695355
11	0xbd9475e8	-0.07249051
12	0x3d9229d1	0.07136882
13	0x3d81c95a	0.06337233
14	0xbe979886	-0.29608554
15	0xbe0d1ca2	-0.13780454
16	0x3e79ef6e	0.24407741
17	0x3df1f9b7	0.118152075
18	0x3d90e910	0.07075703
19	0xbd15c93d	-0.03656887
20	0x3dde234b	0.10846575
21	0x3ec72385	0.38894287
22	0x3b149ef9	0.0022677763
23	0xbcf4d745	-0.029887805
24	0xbe11f188	-0.14252293
25	0x3dd81c87	0.10552316
26	0x3e946fcb	0.2899154
27	0x3e23f343	0.16010766
28	0xbd063023	-0.03276075
29	0xbeaa918c	-0.33314168
30	0x3e216f54	0.15765125
31	0x3e934831	0.28766015
32	0xbe0bcb6e	-0.13651821
33	0x3d9378e2	0.07200791
34	0xbe7fea25	-0.24991663
35	0xbd06a927	-0.03287616
36	0x3e66ab7e	0.22526357
37	0xbc770848	-0.015077658
38	0xbec8f858	-0.3925197
39	0xbe8fd0ca	-0.2808898
40	0x3dd7b301	0.10532189
41	0x3e4de97a	0.20108595
42	0xbe991ec8	-0.29906297
43	0x3d719186	0.058976673
44	0xbe9e57d1	-0.30926374
45	0x3e1927e4	0.14956623
46	0xbeaf69d8	-0.3426044
47	0xbd281240	-0.04103303
48	0xbd6efc7a	-0.05834625
49	0x3eab9796	0.33514088
50	0x3db08ad4	0.08620229
51	0x3e39b87e	0.18136784
52	0x3d39e79a	0.045386888
53	0xbd1e6592	-0.038671084
54	0xbc91ea76	-0.017811995
55	0xbc93d3bd	-0.0180453
56	0x3e1f7316	0.15571246
57	0x3d17515a	0.036942817
58	0xbe3b6ed7	-0.18304001
59	0x3e81f391	0.2538114
60	0x3f080f66	0.53148496
61	0x3e4e5c5a	0.20152417
62	0x3d9424a8	0.07233554
63	0x3dc5d584	0.096598655
64	0x3ece45be	0.40287584
65	0xbc3c84a6	-0.011506235
66	0xbd27e09c	-0.04098569
67	0xbe3384e3	-0.17531161
68	0xbb5377bc	-0.0032267412
69	0xbdf89113	-0.12137046
70	0x3e29804e	0.1655285
71	0xbc5c31f8	-0.013439648
72	0x3dad037f	0.084479325
73	0x3d79d460	0.060993552
74	0x3e605472	0.21907213
75	0x3e113ef7	0.14184175
76	0x3db2afea	0.08724959
77	0xbe563e44	-0.2092219
78	0x3d803610	0.062603116
79	0xbe5f4f21	-0.21807529
80	0x3d80e6d5	0.06294028
81	0xbc0dc878	-0.0086537525
82	0x3df4c926	0.119524285
83	0xbdfa9fc7	-0.12237506
84	0x3d1d92db	0.03847013
85	0x3e85be1a	0.26121598
86	0xbe694266	-0.22779235
87	0x3cda35f2	0.026637051
88	0x3de8844d	0.11353359
89	0x3d2bfc46	0.041988634
90	0x3e2f25df	0.1710429
91	0x3d8dff7c	0.069334954
92	0x3ddec95c	0.1087825
93	0x3ea61442	0.3243733
94	0x3d2b1b1c	0.0417739
95	0x3ec68a1e	0.3877725
96	0xbd7534af	-0.059864696
97	0x3e97f4af	0.29678866
98	0x3f2f4561	0.6846524
99	0x3da3f92a	0.08006509
100	0x3e02b4ac	0.12764233
101	0xbde62269	-0.11237032
102	0xbc98977d	-0.018626923
103	0x3dc92744	0.098219424
104	0x3e5e1e41	0.21691228
105	0xbe05c97d	-0.13065143
106	0x3e82f85d	0.2558011
107	0x3e0beb87	0.13664065
108	0xbd4d6766	-0.050147437
109	0x3e76d3d7	0.24104248
110	0x3dcd1992	0.10014643
111	0x3e177284	0.14789778
112	0xbe68eabd	-0.22745796
113	0x3e85df45	0.26146904
114	0x3dec8a5f	0.1154983
115	0xbd123fa9	-0.035705242
116	0x3e337f99	0.17529143
117	0x3e0689cc	0.13138503
118	0x3d908129	0.07055885
119	0x3d030759	0.03198943
120	0xbdc7d886	-0.097580954
121	0x3e069bff	0.13145445
122	0x3e1cc75c	0.15310425
123	0x3e0c0fbf	0.13677882
124	0x3e48f621	0.1962514
125	0xbc0903a9	-0.008362689
126	0x3e6d882a	0.23196474
127	0xbc087724	-0.008329187
128	0x3ecc5045	0.3990499
129	0x3d808c83	0.062768005
130	0xbdacb95d	-0.08433793
131	0x3c0b49a0	0.00850144
132	0xbd4fcf4d	-0.050734807
133	0x3d8504b6	0.06495039
134	0x3ea4cd28	0.32187772
135	0xbc9f751a	-0.019465018
136	0xbe456e41	-0.1928034
137	0xbe0d583f	-0.13803194
138	0x3d9d71c7	0.07687717
139	0x3de9a170	0.11407745
140	0x3e655d2d	0.22398825
141	0xbd610eb9	-0.05494568
142	0xbe447060	-0.19183493
143	0x38a890cb	8.037834e-05
144	0x3e8e1f70	0.2775836
145	0xbdf46cff	-0.11934852
146	0xbe42623c	-0.18982786
147	0xbe27390c	-0.16330355
148	0x3d05a759	0.0326303
149	0xbd288ff4	-0.04115291
150	0xbd1d5371	-0.038409654
151	0x3d36de58	0.044645637
152	0xbe8af45e	-0.27139562
153	0xbe3d0f85	-0.18462951
154	0xbdd81b07	-0.1055203
155	0xbe1893e0	-0.1490016
156	0x3e0c3bf3	0.13694744
157	0x3e1505ec	0.1455304
158	0x3dad104b	0.08450373
159	0x3dd7f493	0.10544696
160	0xbef388fc	-0.47565448
161	0x3dc13b0d	0.09435091
162	0x3ea1fc55	0.31637827
163	0xbea984b6	-0.33109063
164	0x3dcdbb94	0.10045543
165	0xbe6bd1b5	-0.23029216
166	0xbd93282f	-0.07185399
167	0xbea9e45d	-0.3318204
168	0x3e595837	0.21225058
169	0x3e221613	0.15828733
170	0xbde0c2bf	-0.10974645
171	0x3e93c702	0.28862768
172	0xbd1ca0c7	-0.038239267
173	0x3ba7e3c2	0.0051235864
174	0xbe6d9a50	-0.23203397
175	0x3e5db616	0.21651492
176	0xbe804382	-0.25051504
177	0x3dbd7c50	0.09252226
178	0x3e2bd40e	0.16780111
179	0xbd23f5d2	-0.040029354
180	0x3d8535db	0.06504413
181	0x3e0744a5	0.1320978
182	0x3eab7667	0.3348877
183	0xbe07bbb2	-0.13255194
184	0xbd74fe7f	-0.05981302
185	0xbe093410	-0.13398767
186	0xbe96bd75	-0.2944142
187	0x3c2ef3a6	0.0106782075
188	0x3e61c318	0.22047079
189	0x3e410c57	0.18852364
190	0x3cc8596b	0.0244567
191	0x3ca4e098	0.020126626
192	0xbd3fb78b	-0.0468059
193	0xbd808bc0	-0.06276655
194	0x3e86ad77	0.26304218
195	0x3e92c2b3	0.2866417
196	0x3d73e2c1	0.05954242
197	0x3e13c443	0.14430337
198	0xbe8d007b	-0.2753943
199	0x3d8a5e88	0.06756312
200	0x3eb4dda5	0.3532535
201	0x3d3c7602	0.04601098
202	0x3e08aca9	0.13347115
203	0xbc43d9c7	-0.011953778
204	0xbe761a11	-0.24033381
205	0x3ddf42f3	0.109014414
206	0x3d176593	0.036962103
207	0xbd8d5e7c	-0.06902787
208	0x3e7a195e	0.2442374
209	0x3dcec373	0.10095873
210	0x3e4539fb	0.19260399
211	0xbe6e74fe	-0.23286816
212	0x3d9824a4	0.07428864
213	0xbe535671	-0.20638444
214	0x3d3bc320	0.045840383
215	0x3cf22d58	0.029562637
216	0xba93860b	-0.0011255158
217	0x3cb4611a	0.022018958
218	0x3e98dde5	0.29856792
219	0x3ecfa6fa	0.4055708
220	0x3e7d9ee7	0.24767648
221	0xbe25285a	-0.16128674
222	0x3db6b60c	0.089214414
223	0x3e4bbf9a	0.19897309
224	0x3f032303	0.512253
225	0x3df2d84a	0.1185766
226	0x3e9cef78	0.3065145
227	0x3e3fc96b	0.18729179
228	0xbebdcc35	-0.3706986
229	0xbd182a66	-0.03714981
230	0x3cf65f53	0.030074751
231	0xbe48d7ac	-0.19613522
232	0x3d8a33df	0.06748175
233	0x3c9e0a3e	0.019291993
234	0x3e015b07	0.1263238
235	0x3d9e50b6	0.07730238
236	0x3e3a1ea4	0.18175751
237	0xbde6d4eb	-0.1127108
238	0x3e1da39b	0.15394442
239	0x3b56c02e	0.0032768357
240	0x3ddd9bf5	0.10820762
241	0x3e248ce8	0.16069376
242	0xbdda501e	-0.106598124
243	0x3d2b6154	0.041840866
244	0xbd311ae9	-0.043238554
245	0x3de6ce07	0.11269765
246	0xbe94087f	-0.28912732
247	0x3ea72f21	0.32653144
248	0x3d8766cb	0.06611403
249	0x3d2373a7	0.039905217
250	0x3e5185fa	0.20461264
251	0xbd8a0747	-0.06739669
252	0xbda5eb94	-0.081015736
253	0xbdea5454	-0.114418656
254	0xbe07340e	-0.13203451
255	0xbc5448ec	-0.012956839

model.2.bias f4 [64]
0	0xbd0ff1cf	-0.035142716
1	0x3daad0cf	0.08340608
2	0x3db9b107	0.090669684
3	0x3e0f70b3	0.14007835
4	0xbd6fe54f	-0.058568295
5	0x3d4422ee	0.047884874
6	0x3c682d85	0.014171009
7	0x3d8d4b5a	0.06899138
8	0x3db1edd3	0.086879395
9	0xbb21fe96	-0.0024718395
10	0xbcb90d57	-0.022589369
11	0xbcb08b36	-0.021550756
12	0x3e2bca9e	0.16776511
13	0xbd1948de	-0.037423007
14	0x3d5ab90c	0.05339913
15	0xbc3fbd92	-0.011702912
16	0x3e0fe141	0.14050771
17	0x3d9f4cda	0.0777833
18	0x3b8dac13	0.0043234914
19	0x3da551cd	0.08072243
20	0xbd019f72	-0.0316462
21	0x3d44094e	0.047860436
22	0xbcc1bbd5	-0.023649136
23	0xbe04530d	-0.12922306
24	0xbd171fd4	-0.036895588
25	0x3cbb0acb	0.022832295
26	0x3e0ea286	0.13929185
27	0x3b15acac	0.0022838516
28	0x3d779a49	0.060449872
29	0x3c465926	0.012106216
30	0xbc5fb75a	-0.013654554
31	0x3c2130d9	0.009838306
32	0xbdd7a844	-0.10530141
33	0xbcfa97fb	-0.030590048
34	0xbd7a1d57	-0.061063137
35	0xbd9159c8	-0.070972025
36	0xbd38c26b	-0.045107286
37	0x3db79b78	0.089652
38	0xbcc1aa2b	-0.023640713
39	0xbcbf81ad	-0.023377264
40	0xbde352fd	-0.11099813
41	0x3e10a7d8	0.14126527
42	0xbe0eb0f7	-0.13934694
43	0x3d6a433e	0.057193033
44	0x3cc8a714	0.024493732
45	0xbd0731a7	-0.033006337
46	0x3cd31327	0.025765968
47	0xbcc9d363	-0.02463693
48	0x3d48711e	0.048936002
49	0x3c30e9df	0.010797947
50	0x3d933c7f	0.07189273
51	0x3cdc61d2	0.026902113
52	0x3b51ed59	0.003203234
53	0xbe255e29	-0.161492
54	0x3dc3e9fc	0.09566113
55	0x3d68f703	0.056876194
56	0x3b7fe07d	0.0039043718
57	0xbd8b135f	-0.06790804
58	0x3d0c0512	0.034184523
59	0x3dda603b	0.10662886
60	0x3d12402a	0.035705723
61	0x3e222e6f	0.15838026
62	0xbd0cc158	-0.034364074
63	0x3d501320	0.05079949

model.4.weight f4 [64, 64]
0	0x3e63adda	0.22234288
1	0x3e1830a0	0.14862299
2	0x3e9c01dd	0.30470172
3	0xbe01f0f0	-0.12689567
4	0x3e997f7b	0.29980072
5	0xbd19615a	-0.037446357
6	0xbdc8825a	-0.097904876
7	0x3d9ffc56	0.07811801
8	0x3dec87e7	0.11549359
9	0x3d877b6d	0.066153385
10	0x3e3d14a9	0.18464912
11	0xbd16a02f	-0.036773857
12	0x3e9b9bc0	0.30392265
13	0x3db482c5	0.08814005
14	0x3d837557	0.06418865
15	0x3ea1f2f7	0.3163068
16	0x3e4835a1	0.19551708
17	0x3e401353	0.18757372
18	0x3d085392	0.033282824
19	0xbdf54fa9	-0.119780846
20	0x3c2d40b9	0.010574513
21	0xbe8feb95	-0.28109422
22	0x3c6bd04d	0.0143929245
23	0x3db0a92d	0.08626018
24	0xbe540552	-0.20705155
25	0x3e4366e9	0.19082226
26	0x3cf01dca	0.02931108
27	0xbeb31794	-0.34978926
28	0xbe1e4351	-0.15455367
29	0x3e839c30	0.257051
30	0x3e569f22	0.20959142
31	0x3d3b9366	0.045794867
32	0xbe0093f8	-0.12556446
33	0x3e301097	0.17193829
34	0x3eeb0afc	0.45906818
35	0xbeb2dc1b	-0.34933552
36	0x3e2d6156	0.16931662
37	0xbe83b7d6	-0.25726193
38	0xbd2b13ca	-0.04176692
39	0xbea96457	-0.33084366
40	0x3dc84810	0.0977937
41	0xbd629400	-0.055316925
42	0x3f1adc81	0.6049271
43	0xbe82d8ce	-0.25556034
44	0xbd85a627	-0.06525832
45	0xbe8df317	-0.27724525
46	0xbae83818	-0.0017716913
47	0xbf2861c7	-0.65774196
48	0xbe6a69e1	-0.22891952
49	0xbe467569	-0.19380726
50	0x3f3ce231	0.7378264
51	0xbd7ca8fe	-0.0616846
52	0x3ecdd8d7	0.40204498
53	0x3b9e959e	0.004839613
54	0x3eab52a5	0.3346149
55	0x3e3daa7f	0.1852207
56	0x3de21f0d	0.11041079
57	0x3d5b01a3	0.053468358
58	0x3d8d18b4	0.06889477
59	0x3d5b7bd9	0.053584907
60	0x3e5a51de	0.21320292
61	0x3f30ec81	0.69110876
62	0x3eba74fc	0.36417377
63	0xbe3f7219	-0.18695869
64	0xbdc29527	-0.09501105
65	0x3d1b8fd1	0.03797895
66	0xbdf71a01	-0.12065507
67	0xbdaf200c	-0.08551034
68	0x3e16ecd8	0.14738786
69	0xbe790444	-0.24318033
70	0xbdab646b	-0.083687626
71	0x3d815540	0.06315088
72	0x3e1a6a9a	0.15079728
73	0x3e14c04a	0.14526477
74	0x3e73cdfe	0.23809049
75	0x3e257a95	0.16160043
76	0xbd70c78b	-0.05878405
77	0xbe268758	-0.16262567
78	0x3d02ff02	0.031981476
79	0xbe227aee	-0.15867206
80	0xbd11217b	-0.03543232
81	0x3e67334e	0.22578165
82	0xbd165a8e	-0.036707453
83	0xbd53e500	-0.051732063
84	0xbe9c63e5	-0.30544963
85	0x3d297091	0.041367117
86	0x3d944f03	0.07241633
87	0x3e7b1740	0.24520588
88	0xbd264178	-0.04058978
89	0x3e6f23d2	0.23353508
90	0x3e2fe960	0.17178869
91	0xbe16288f	-0.1466391
92	0xbe2361c1	-0.15955259
93	0xbe472e7f	-0.1945133
94	0x3e1f72c6	0.15571126
95	0xbb3cf252	-0.0028830958
96	0x3e163e1b	0.14672129
97	0xbc475948	-0.012167282
98	0x3eabf23f	0.33583257
99	0x3edc9623	0.43083295
100	0x3d539ce5	0.0516633
101	0x3e08c6a4	0.13357025
102	0xbef9e94b	-0.488108
103	0xbed7257a	-0.4202078
104	0x3d45de72	0.048307844
105	0x3c876a35	0.016530136
106	0x3ec6063b	0.38676628
107	0xbe50ac44	-0.20378214
108	0xbcadf4b7	-0.021234853
109	0xbd540bbe	-0.05176901
110	0x3e346fcd	0.17620774
111	0xbeec485e	-0.46148962
112	0x3d8de462	0.06928326
113	0xbe66cacf	-0.22538303
114	0x3f3e85c0	0.74422836
115	0xbd58e63b	-0.05295394
116	0x3e66302d	0.22479315
117	0x3e80e07f	0.25171277
118	0x3e79519f	0.24347542
119	0x3e1659ad	0.14682646
120	0xbc5ff1f5	-0.013668527
121	0x3e59df23	0.21276526
122	0x3e3830c7	0.17987357
123	0xbd79f776	-0.061027013
124	0x3e16a349	0.14710726
125	0x3f29dd2b	0.663531
126	0x3e9b3306	0.30312365
127	0xbeb11d62	-0.3459273
128	0xbc9daffb	-0.019248953
129	0x3e483b4b	0.19553868
130	0x3db0eebc	0.08639285
131	0x3eaca263	0.3371764
132	0x3d954b82	0.072897926
133	0xbe142527	-0.14467297
134	0x3c9a8729	0.018863278
135	0x3e9d548f	0.30728576
136	0xbe9c4ecb	-0.30528864
137	0xbdd0d006	-0.10195927
138	0x3f03fb74	0.5155556
139	0xbea46afc	-0.32112873
140	0x3f020a73	0.50797194
141	0x3f121404	0.5706179
142	0xbd53d1a6	-0.05171361
143	0x3d3fbdc4	0.046811834
144	0x3e790115	0.24316819
145	0x3dc29cfd	0.095025994
146	0x3c963b2e	0.018338766
147	0x3d7c42d5	0.061587173
148	0x3f0c92a4	0.54911256
149	0xbea24788	-0.316952
150	0x3e3c15cf	0.18367694
151	0x3d88df0c	0.06683168
152	0x3e9385ec	0.28813112
153	0x3e4cb9de	0.19992778
154	0xbeb13471	-0.34610322
155	0xbd2e3bb1	-0.042537395
156	0xbe2900b5	-0.16504176
157	0x3ea079be	0.31342882
158	0x3e08a691	0.1334479
159	0x3e8cd5d7	0.27506897
160	0xbd4223ab	-0.047397297
161	0xbda1ccd3	-0.07900395
162	0x3b087a98	0.0020825025
163	0xbe1c10e2	-0.15240815
164	0x3e0b6851	0.13614012
165	0xbe835bdb	-0.25656018
166	0x3f4cfe06	0.8007511
167	0x3e67d3a1	0.22639324
168	0xbe6d9c91	-0.23204257
169	0xbc4076f7	-0.011747113
170	0x3f16a04f	0.5883836
171	0xbde13341	-0.10996104
172	0x3ec5f687	0.38664648
173	0x3ca32539	0.01991521
174	0x3e204942	0.15652946
175	0xbe1a87c9	-0.1509086
176	0xbd89f85e	-0.067368254
177	0x3e023cf5	0.12718566
178	0xbd35e577	-0.044408288
179	0x3d8833be	0.06650494
180	0x3e26afab	0.1627795
181	0x3d986237	0.07440608
182	0x3d041d5d	0.032254566
183	0xbe24badd	-0.16086908
184	0xbe1efa55	-0.15525182
185	0xbdc0ce95	-0.094144024
186	0xbcc8d044	-0.024513371
187	0x3d8322e2	0.06403138
188	0xbd8405ce	-0.0644642
189	0xbee72cb7	-0.45151302
190	0x3e8df37f	0.27724835
191	0x3f0aa9b4	0.54165196
192	0x3cc6586a	0.024212081
193	0xbb822856	-0.0039720936
194	0xbb89e878	-0.0042086206
195	0xbd6575f6	-0.0560207
196	0xbdb9f09e	-0.09079097
197	0x3d0bac62	0.034099944
198	0x3db18ccd	0.08669434
199	0xbdf11f01	-0.11773492
200	0xbd8131d8	-0.06308335
201	0xbd9d8b18	-0.07692546
202	0xbdff86cc	-0.12476882
203	0x3db6fdf2	0.08935155
204	0xbcc1b146	-0.0236441
205	0x3cfc2fbd	0.030784482
206	0xbdbc4100	-0.09192085
207	0xbd738f91	-0.059463087
208	0xbd989903	-0.0745106
209	0xbe0e4610	-0.13893914
210	0x3c8c1466	0.01709957
211	0xbdfcd38b	-0.12345036
212	0x3d1c3d94	0.038144663
213	0x3d924a09	0.07143027
214	0xbdbfa0a1	-0.093568094
215	0x3dea1119	0.11429042
216	0x3d3618b4	0.044457152
217	0x3bfc2ad9	0.0076955375
218	0x3dd988c4	0.10621789
219	0x3c395d73	0.011313784
220	0xbe289bcf	-0.16465686
221	0x3d278ba5	0.04090466
222	0x3dafcf55	0.08584467
223	0xbe0ca609	-0.13735212
224	0xbe1df647	-0.15425979
225	0xbd54b4c5	-0.051930208
226	0x3da238e1	0.07921005
227	0x3e0b92c5	0.13630207
228	0x3d11f806	0.035636924
229	0x3cca66ce	0.024707224
230	0xbd1979da	-0.037469722
231	0x3d2695bf	0.040670153
232	0x3c8cc729	0.01718481
233	0xbcdb0bbf	-0.026739
234	0x3e06a674	0.13149434
235	0xbe1ee4fe	-0.15517041
236	0x3b221edd	0.0024737634
237	0xbca3c98b	-0.019993564
238	0xbd5f0bf1	-0.054454748
239	0xbd60e149	-0.05490235
240	0xbe019888	-0.12655842
241	0xbd229158	-0.03968939
242	0x3d81a86f	0.06330954
243	0x3d377479	0.04478881
244	0x3d6eaee5	0.05827226
245	0x3dd27efa	0.10278125
246	0xbdbddd2e	-0.09270702
247	0xbcb28c1c	-0.021795325
248	0x3da3488c	0.079728216
249	0xbda83a34	-0.08214226
250	0x3dd7f671	0.10545052
251	0xbca60d3b	-0.02026998
252	0xbdf58d8c	-0.119898885
253	0xbcc128f8	-0.023579106
254	0x3b6fc7fb	0.0036587704
255	0xbd1d4f64	-0.03840579

model.4.bias f4 [64]
0	0x3df4dfa1	0.11956716
1	0xbc53c7e5	-0.012926077
2	0xbced65a1	-0.028979125
3	0xbd83f276	-0.0644273
4	0xbd3c35a8	-0.045949608
5	0x3e990e64	0.29893792
6	0x3d96a18d	0.07355032
7	0x3d58ebc2	0.05295921
8	0x3d1eeb17	0.038798418
9	0xbcd3a5a4	-0.02583582
10	0xbdffef0f	-0.12496769
11	0xbd27086c	-0.040779516
12	0x3cd91063	0.026497072
13	0x3dc065d5	0.09394423
14	0xbe24c75d	-0.16091676
15	0x3da97118	0.08273524
16	0x3d6ef185	0.0583358
17	0xbca3c208	-0.019989982
18	0xbcb98bd5	-0.022649685
19	0xbb808940	-0.0039226115
20	0xbdf12ba1	-0.117759
21	0x3d9a5ea4	0.075375825
22	0xbd69fd13	-0.057126116
23	0xbcd389df	-0.025822578
24	0x3be51de4	0.0069920886
25	0x3c3efbab	0.011656682
26	0xbd0c13f5	-0.03419872
27	0xbb6f0d77	-0.0036476532
28	0xbd39499f	-0.045236226
29	0x3d875ca0	0.06609464
30	0xbd382497	-0.04495677
31	0x3d7afb33	0.06127472
32	0xbd713fa9	-0.0588986
33	0xbe1d189e	-0.15341422
34	0xbd78ca6e	-0.060739927
35	0x3e0f3988	0.1398679
36	0x3da4a3bc	0.08039042
37	0x3de6580b	0.112472616
38	0xbd5e28c6	-0.054238103
39	0xbd3c2f83	-0.04594375
40	0x3d48c476	0.049015485
41	0x3d179806	0.037010215
42	0xbca6dc15	-0.020368615
43	0xbd8a168c	-0.06742582
44	0xbda33b7f	-0.07970332
45	0xbbe21dd7	-0.00690053
46	0xbd5a5886	-0.05330708
47	0xbdc6b5e2	-0.0970266
48	0xbdf54c0c	-0.119773954
49	0xbd3caa03	-0.046060573
50	0xbd9d1ae3	-0.07671144
51	0xbe0b93ff	-0.13630675
52	0xbc8a6adf	-0.016896663
53	0xbcd43e20	-0.02590853
54	0x3dafa7a4	0.08576897
55	0xbd6fa3c1	-0.058505777
56	0x3dffe06e	0.124939784
57	0x3db9cb6e	0.09072004
58	0x3dd7140f	0.10501873
59	0x3dc4de03	0.09612658
60	0xbd9aae48	-0.07552773
61	0x3e066247	0.13123427
62	0xbab070f0	-0.0013461392
63	0xbd898b26	-0.067159936

model.6.weight f4 [6, 64]
0	0xbe6db887	-0.23214923
1	0x3c8f4c1a	0.017492343
2	0xbf582522	-0.8443166
3	0xbd6bdd56	-0.05758413
4	0xbd71aea3	-0.059004437
5	0xbd38c9d6	-0.04511436
6	0x3d3d191e	0.04616653
7	0x3e6cefa2	0.23138288
8	0x3d82db50	0.06389487
9	0xbd8ee8c2	-0.06977989
10	0xbeded639	-0.43522814
11	0xbb31db41	-0.0027138742
12	0xbeba6a56	-0.36409253
13	0xbdcc351a	-0.09971066
14	0xbe621917	-0.22079884
15	0x3ebb1fd5	0.36547723
16	0xbd753d28	-0.059872776
17	0x3dc1bd0d	0.09459887
18	0x3e8bc1f9	0.27296427
19	0xbd5f4938	-0.054513186
20	0x3d237316	0.039904676
21	0x3e40bab4	0.18821222
22	0x3dd09aa4	0.10185745
23	0x3cee492c	0.029087625
24	0x3e17df74	0.14831334
25	0x3e953c45	0.29147545
26	0x3d87a4e7	0.066232495
27	0x3ebdcbaa	0.37069446
28	0xbdcd71ac	-0.10031447
29	0xbde0a695	-0.10969273
30	0xbd820a00	-0.063495636
31	0xbe12ab25	-0.14323099
32	0x3d0b842a	0.03406159
33	0x3de2465c	0.11048576
34	0xbd59c8cb	-0.053170007
35	0x3ec54be6	0.38534468
36	0xbf1ddab3	-0.61661834
37	0xbbe9aafe	-0.0071309796
38	0xbeab7425	-0.3348705
39	0xbe7863a2	-0.24256757
40	0xbe63acba	-0.22233859
41	0xbe7bbfd1	-0.24584891
42	0x3e425530	0.18977809
43	0xbb3bf816	-0.0028681806
44	0x3d88d4d7	0.06681221
45	0xbed240d9	-0.410651
46	0x3e8cd57d	0.2750663
47	0x3d40f6c4	0.047110334
48	0xbe0e3e1b	-0.13890879
49	0x3dfb71d5	0.12277571
50	0x3e0cda9f	0.13755272
51	0x3cad2298	0.02113466
52	0x3ea2e3d3	0.3181444
53	0x3ead7817	0.33880684
54	0x3e0f3c0b	0.13987748
55	0x3d8f1ca1	0.069878824
56	0xbe20385d	-0.15646501
57	0xbe8194db	-0.2530888
58	0xbee0b353	-0.43886814
59	0x3de10c52	0.10988678
60	0x3d9f4a69	0.077778645
61	0x3aae5849	0.0013301458
62	0xbe832d7a	-0.25620633
63	0x3db5d416	0.08878343
64	0x3f004433	0.50104064
65	0x3ea643fa	0.32473737
66	0xbe28d187	-0.16486178
67	0x3df478a2	0.119370714
68	0x3c1e2d63	0.009654376
69	0x3e9ef299	0.31044462
70	0x3db0f120	0.08639741
71	0xbe24b9d1	-0.16086508
72	0xbd78d55b	-0.060750347
73	0x3de4404a	0.11145075
74	0x3ef87926	0.4852993
75	0x3ee7d40e	0.45278972
76	0x3ec899b0	0.39179754
77	0x3e907d6e	0.28220695
78	0xbe1afe08	-0.15135968
79	0xbe9bbb27	-0.30416223
80	0xbe91d740	-0.28484535
81	0xbdb5cb8c	-0.08876714
82	0x3d3a4543	0.04547621
83	0xbd9cbd48	-0.0765329
84	0xbb7cc6e5	-0.0038570699
85	0x3cbec10e	0.023285415
86	0xbe349739	-0.17635812
87	0xbddc1f5f	-0.10748171
88	0x3dcb7e61	0.09936214
89	0xbc9efb92	-0.019407067
90	0xbd897c1d	-0.06713126
91	0xbea706c9	-0.32622364
92	0xbcfb4747	-0.030673636
93	0x3dae3839	0.08506817
94	0xbddc478f	-0.10755836
95	0x3eda5182	0.4264031
96	0x3dedc6bf	0.116101734
97	0xbec0851e	-0.3760156
98	0x3e01f828	0.1269232
99	0xbebcd6a6	-0.36882514
100	0xbf2015e3	-0.62533396
101	0x3e91b4b0	0.28458166
102	0x3ee07d1b	0.43845448
103	0xbe26b618	-0.16280401
104	0xbe135823	-0.1438909
105	0x3e816acb	0.2527679
106	0xbe87b648	-0.26506257
107	0x3d11a547	0.03555801
108	0x3dbc6390	0.091986775
109	0x3ed5cc10	0.4175725
110	0xbe01cecb	-0.12676542
111	0xbb7dd140	-0.003872946
112	0x3dfd68fb	0.12373539
113	0x3cd7d122	0.02634484
114	0x3d98193c	0.07426688
115	0xbdd3bf58	-0.1033923
116	0xbe958a5d	-0.29207125
117	0xbed271c5	-0.41102424
118	0x3dd948f1	0.106096156
119	0x3df5e3c0	0.120063305
120	0xbbee3d92	-0.0072705233
121	0x3dc63219	0.09677524
122	0x3e24a665	0.160791
123	0xbe4c2865	-0.19937284
124	0x3d0e1343	0.03468634
125	0xbeb01889	-0.3439372
126	0x3eb6de7b	0.35716614
127	0xbe7e08f0	-0.24808097
128	0xbcbc3917	-0.022976441
129	0xbea4749d	-0.3212022
130	0x3e888dc9	0.26670673
131	0xbe236ad5	-0.15958722
132	0x3be24904	0.006905677
133	0x3e8775e2	0.26457125
134	0x3d610f50	0.054946244
135	0xbe308830	-0.17239451
136	0x3c739afd	0.014868495
137	0xbd47da37	-0.04879209
138	0xbd83e9fc	-0.06441113
139	0xbea78ec3	-0.32726106
140	0xbd860abf	-0.065450184
141	0x3e3775e1	0.17916061
142	0xbe8b4de2	-0.27207857
143	0xbec6b41d	-0.3880929
144	0x3ddc2e07	0.107509665
145	0x3eabb9dc	0.33540237
146	0xbe48ebfb	-0.1962127
147	0x3de38d02	0.111108795
148	0x3dc24c4b	0.09487208
149	0xbcc266cb	-0.023730656
150	0xbe746734	-0.23867494
151	0xbe0b3c30	-0.13597178
152	0xbe84df66	-0.2595169
153	0x3e09ef19	0.13470115
154	0x3b63fa65	0.0034786698
155	0xbe86a35d	-0.2629651
156	0xbad093ad	-0.0015913151
157	0xbe59b494	-0.21260291
158	0x3dd49791	0.103804715
159	0xbe2b7f2c	-0.16747731
160	0xbead4639	-0.33842638
161	0xbe866590	-0.2624936
162	0xbe8d20bb	-0.27564034
163	0xbc195d5d	-0.009360638
164	0x3eef0cda	0.46689492
165	0x3dcf6054	0.10125795
166	0xbe66d97f	-0.22543906
167	0xbe24aeaf	-0.16082262
168	0x3e1d9df2	0.15392283
169	0xbd868783	-0.065688156
170	0xbc160202	-0.009155752
171	0x3d266595	0.04062422
172	0x3db7dac6	0.089772746
173	0x3e229aed	0.15879412
174	0xbed5c4fc	-0.4175185
175	0x3d785fc8	0.06063822
176	0xbd92654b	-0.07148226
177	0x3e0eb6e3	0.13936953
178	0xbe06a861	-0.13150169
179	0xbd948aff	-0.07253074
180	0xbefc2008	-0.49243188
181	0xbec6d32b	-0.38832983
182	0x3de38cbd	0.11110828
183	0x3d25193c	0.04030727
184	0x3ddef5e4	0.10886744
185	0xbc5e182b	-0.013555567
186	0x3ed937d7	0.42425415
187	0x3dddd8d0	0.10832369
188	0x3de10ea5	0.10989121
189	0x3e9da94a	0.3079322
190	0xbd5de9c8	-0.05417803
191	0xbd91a64c	-0.07111797
192	0x3e098957	0.13431297
193	0xbd46c3d9	-0.04852662
194	0x3de50c44	0.1118398
195	0x3ab5beab	0.0013866028
196	0xbde24805	-0.11048893
197	0x3e46d28c	0.19416255
198	0xbebac7af	-0.36480471
199	0x3e074120	0.13208437
200	0xbdcfde24	-0.10149792
201	0x3df6860e	0.12037288
202	0xbd43fd1f	-0.047848817
203	0xbcee33ab	-0.029077372
204	0x3c94c42b	0.018159946
205	0xbe161bcd	-0.14659043
206	0x3e0e13a3	0.13874678
207	0xbe9dad5d	-0.30796328
208	0xbe51d6ab	-0.20492046
209	0xbed027b1	-0.40655282
210	0xbe666e08	-0.22502911
211	0x3d0d6654	0.034521416
212	0x3e057054	0.13031131
213	0xbead792a	-0.33881503
214	0xbcfe9c3a	-0.031080354
215	0xbd979d2f	-0.07403027
216	0xbeecdc90	-0.46262026
217	0xbf2fe3f0	-0.6870718
218	0x3da962bf	0.082707874
219	0xbdf43450	-0.1192404
220	0x3d790141	0.06079221
221	0x3dc0a398	0.09406203
222	0x3da5c131	0.08093489
223	0xbd7f6ed7	-0.062361564
224	0xbdf58650	-0.11988509
225	0xbda5f56b	-0.081034504
226	0x3e5555f5	0.20833571
227	0x3e7f4156	0.24927267
228	0x3e150112	0.1455119
229	0xbdf5e67a	-0.120068505
230	0x3ecee8d0	0.40411997
231	0x3d91d585	0.07120804
232	0x3d6e540c	0.058185622
233	0xbc1ebd86	-0.009688741
234	0x3e636e37	0.22210012
235	0x3e0351a5	0.12824114
236	0xbdc765de	-0.097362265
237	0x3ea845fe	0.328659
238	0x3d55cad6	0.052195393
239	0xbdcade04	-0.09905627
240	0x3d219f24	0.03945841
241	0xbed8ce85	-0.42345062
242	0x3e621555	0.2207845
243	0xbd3162d7	-0.04330715
244	0xbe5b254f	-0.21400951
245	0xbe037796	-0.12838587
246	0xbe2fa897	-0.17154156
247	0x3da28480	0.079354286
248	0xbcb41258	-0.021981403
249	0x3d0436d4	0.03227885
250	0x3ee7d186	0.4527704
251	0xbe4bb195	-0.19891961
252	0xbd80ecf4	-0.06295195
253	0xbf01be3d	-0.50680906
254	0xbe92a194	-0.286389
255	0xbf1563d8	-0.58355474

model.6.bias f4 [6]
0	0xbd2d2866	-0.042274855
1	0x3dd447cb	0.10365256
2	0x3e67ac07	0.22624217
3	0x3dbe9990	0.093066335
4	0x3cd7c540	0.026339173
5	0xbe125cbf	-0.14293192
